EDSR(
  (sub_mean): MeanShift(1, 1, kernel_size=(1, 1, 1), stride=(1, 1, 1))
  (add_mean): MeanShift(1, 1, kernel_size=(1, 1, 1), stride=(1, 1, 1))
  (head): Sequential(
    (0): Conv3d(1, 180, kernel_size=(3, 3, 3), stride=(1, 1, 1), padding=(1, 1, 1))
  )
  (body): Sequential(
    (0): ResBlock(
      (body): Sequential(
        (0): Conv3d(180, 180, kernel_size=(3, 3, 3), stride=(1, 1, 1), padding=(1, 1, 1))
        (1): ReLU(inplace=True)
        (2): Conv3d(180, 180, kernel_size=(3, 3, 3), stride=(1, 1, 1), padding=(1, 1, 1))
      )
    )
    (1): ResBlock(
      (body): Sequential(
        (0): Conv3d(180, 180, kernel_size=(3, 3, 3), stride=(1, 1, 1), padding=(1, 1, 1))
        (1): ReLU(inplace=True)
        (2): Conv3d(180, 180, kernel_size=(3, 3, 3), stride=(1, 1, 1), padding=(1, 1, 1))
      )
    )
    (2): ResBlock(
      (body): Sequential(
        (0): Conv3d(180, 180, kernel_size=(3, 3, 3), stride=(1, 1, 1), padding=(1, 1, 1))
        (1): ReLU(inplace=True)
        (2): Conv3d(180, 180, kernel_size=(3, 3, 3), stride=(1, 1, 1), padding=(1, 1, 1))
      )
    )
    (3): ResBlock(
      (body): Sequential(
        (0): Conv3d(180, 180, kernel_size=(3, 3, 3), stride=(1, 1, 1), padding=(1, 1, 1))
        (1): ReLU(inplace=True)
        (2): Conv3d(180, 180, kernel_size=(3, 3, 3), stride=(1, 1, 1), padding=(1, 1, 1))
      )
    )
    (4): ResBlock(
      (body): Sequential(
        (0): Conv3d(180, 180, kernel_size=(3, 3, 3), stride=(1, 1, 1), padding=(1, 1, 1))
        (1): ReLU(inplace=True)
        (2): Conv3d(180, 180, kernel_size=(3, 3, 3), stride=(1, 1, 1), padding=(1, 1, 1))
      )
    )
    (5): Conv3d(180, 180, kernel_size=(3, 3, 3), stride=(1, 1, 1), padding=(1, 1, 1))
  )
  (tail): Sequential(
    (0): Upsampler(
      (0): Conv3d(180, 1440, kernel_size=(3, 3, 3), stride=(1, 1, 1), padding=(1, 1, 1))
      (1): PixelShuffle3d()
      (2): Conv3d(180, 1440, kernel_size=(3, 3, 3), stride=(1, 1, 1), padding=(1, 1, 1))
      (3): PixelShuffle3d()
    )
    (1): Conv3d(180, 1, kernel_size=(3, 3, 3), stride=(1, 1, 1), padding=(1, 1, 1))
  )
)
Parameters: 23634365

Evaluation:
[DRSRD x4]	PSNR: 25.444 (Best: 25.444 @epoch 1)
Forward: 42.36s

Saving...
Total: 42.38s

