EDSR(
  (sub_mean): MeanShift(1, 1, kernel_size=(1, 1, 1), stride=(1, 1, 1))
  (add_mean): MeanShift(1, 1, kernel_size=(1, 1, 1), stride=(1, 1, 1))
  (head): Sequential(
    (0): Conv3d(1, 180, kernel_size=(3, 3, 3), stride=(1, 1, 1), padding=(1, 1, 1))
  )
  (body): Sequential(
    (0): ResBlock(
      (body): Sequential(
        (0): Conv3d(180, 180, kernel_size=(3, 3, 3), stride=(1, 1, 1), padding=(1, 1, 1))
        (1): ReLU(inplace=True)
        (2): Conv3d(180, 180, kernel_size=(3, 3, 3), stride=(1, 1, 1), padding=(1, 1, 1))
      )
    )
    (1): ResBlock(
      (body): Sequential(
        (0): Conv3d(180, 180, kernel_size=(3, 3, 3), stride=(1, 1, 1), padding=(1, 1, 1))
        (1): ReLU(inplace=True)
        (2): Conv3d(180, 180, kernel_size=(3, 3, 3), stride=(1, 1, 1), padding=(1, 1, 1))
      )
    )
    (2): ResBlock(
      (body): Sequential(
        (0): Conv3d(180, 180, kernel_size=(3, 3, 3), stride=(1, 1, 1), padding=(1, 1, 1))
        (1): ReLU(inplace=True)
        (2): Conv3d(180, 180, kernel_size=(3, 3, 3), stride=(1, 1, 1), padding=(1, 1, 1))
      )
    )
    (3): ResBlock(
      (body): Sequential(
        (0): Conv3d(180, 180, kernel_size=(3, 3, 3), stride=(1, 1, 1), padding=(1, 1, 1))
        (1): ReLU(inplace=True)
        (2): Conv3d(180, 180, kernel_size=(3, 3, 3), stride=(1, 1, 1), padding=(1, 1, 1))
      )
    )
    (4): ResBlock(
      (body): Sequential(
        (0): Conv3d(180, 180, kernel_size=(3, 3, 3), stride=(1, 1, 1), padding=(1, 1, 1))
        (1): ReLU(inplace=True)
        (2): Conv3d(180, 180, kernel_size=(3, 3, 3), stride=(1, 1, 1), padding=(1, 1, 1))
      )
    )
    (5): Conv3d(180, 180, kernel_size=(3, 3, 3), stride=(1, 1, 1), padding=(1, 1, 1))
  )
  (tail): Sequential(
    (0): Upsampler(
      (0): Conv3d(180, 1440, kernel_size=(3, 3, 3), stride=(1, 1, 1), padding=(1, 1, 1))
      (1): PixelShuffle3d()
      (2): Conv3d(180, 1440, kernel_size=(3, 3, 3), stride=(1, 1, 1), padding=(1, 1, 1))
      (3): PixelShuffle3d()
    )
    (1): Conv3d(180, 1, kernel_size=(3, 3, 3), stride=(1, 1, 1), padding=(1, 1, 1))
  )
)
Parameters: 23634365
[Epoch 1]	Learning rate: 0.00e+2
[400/1600]	[Charbonnier: 44.5305][HF: 24.5097][Total: 69.0403]	14.4+20.4s
[800/1600]	[Charbonnier: 44.7126][HF: 24.3793][Total: 69.0918]	13.3+21.2s
[1200/1600]	[Charbonnier: 45.1543][HF: 24.1758][Total: 69.3300]	13.4+21.2s
[1600/1600]	[Charbonnier: 45.1413][HF: 24.2371][Total: 69.3784]	13.4+21.3s
…
